net_model.pkl (torch, 7471 bytes, 7 tensors)

weight f4 [20, 3]
00000000: b04c 053f 23c6 363e 65c9 05bf 4769 023f
00000010: 3756 febe 2928 3d3f 51df 273f 1940 393f
00000020: 4ea5 8b3e 0b00 2fbf 3d55 5ebf 32a1 5e3f
00000030: 24ef 0cbe 0ff8 0d3f 32db fc3e 2c69 763d
00000040: 1cbe 963f c884 86bf 3976 e73e 47ea 01bf
00000050: 5635 eebd c5f1 d03e bf72 803f 0ab4 5c3f
00000060: 288f 2e3f 7b2a 57bf 9c89 a4be 8da3 073f
00000070: 254b 62bc 5f20 c7bd 76f9 62bf 10cb e93e
00000080: 63fe 123f b99f 77be c281 61bf 9521 c8be
00000090: 8a71 da3e b4ed 80bf 2386 f53e e8f8 79bf
000000a0: 9026 183f b106 09bf 0f0a a43e f7d3 c3be
000000b0: c4b6 dbbe db2b 853e 844b 5b3f e395 163f
000000c0: 7f02 3bbf 08e4 52bf 9d74 9dbf b19c 633d
000000d0: fc91 10bd b785 4b3f b687 f1bd ada0 e13e
000000e0: 2692 2a3f da59 213f 90f4 f53e 7f4c 38bf
0.5207014 0.1784902 -0.5226043 0.5094189 -0.49675152 0.73889405 0.6557513 0.7236343
0.27274555 -0.6835944 -0.86848813 0.86964715 -0.137631 0.5545663 0.49385983 0.060158893
1.1776767 -1.0509272 0.45207384 -0.50748104 -0.11631267 0.40809456 1.0035018 0.8621222
0.6818719 -0.84049195 -0.32136238 0.52983934 -0.013811861 -0.09722971 -0.886619 0.45662737
0.57419413 -0.24182023 -0.8808862 -0.3908812 0.42664748 -1.0072541 0.479539 -0.97645426
0.5943384 -0.53525835 0.32038924 -0.38247654 -0.42912877 0.26010022 0.856621 0.5882246
-0.73050684 -0.823792 -1.2301213 0.055569354 -0.03529547 0.7950091 -0.11793463 0.44067898
0.66629255 0.6302773 0.4803815 -0.71991724

bias f4 [20]
00000000: 8738 eabe 9803 0ebf ecd6 aa3e 2946 813f
00000010: b082 0a3f 29be 343f 76b8 99be 6cc3 13bf
00000020: 02d6 cdbe 56d4 1abf 4825 913f 2ede 9b3e
00000030: 09ef 703e 79b0 7e3a 8003 0d3f 6c70 98bd
00000040: 8ffc 613f f9b1 6d3f c6e8 f33e eecc 18bf
-0.45746252 -0.55474234 0.33367097 1.0099536 0.54105663 0.7060266 -0.30023545 -0.57720065
-0.40202338 -0.6048025 1.1339502 0.30442947 0.23528685 0.00097156275 0.55083466 -0.07443318
0.88276 0.9284969 0.4763853 -0.596877

weight f4 [20, 20]
00000000: bdb5 e2be 2756 d43d fe85 343e 83fd 81bf
00000010: ec8e 9f3d 8d40 88bd 8514 7a3e a2eb f1be
00000020: a23a 1c3e c2af 81be 75a6 873d d781 89bf
00000030: 949c 0a3d e12a debe ccad 6f3e 0874 6ebe
00000040: e42b 8fbf 8d08 6a3e 30bd acbd 9eaa 15bf
00000050: d3de 893d e1e3 463d bbd0 d23d 15c3 d03e
00000060: e82f 833e c619 9dbe 7553 8dbd fa57 0f3f
00000070: 8fef 383e 3b25 b33e 564d 813e cefe 8f3e
00000080: f7b5 15bd 887c b33f 3a75 2cbe 9605 b93e
00000090: 4c6d df3e dad8 b03d 46ae b83d b3df 0e3f
000000a0: f72e 9abe e7c6 7d3d 0f0f d13d e7c6 63bc
000000b0: 9588 d33e 0288 1ebf f828 113d f6a7 60bd
000000c0: 73db b63d 331e 53be 8ea7 763e 0633 e7be
000000d0: b754 893e 91d6 87bf 84bd de3e b31b f13d
000000e0: 7e3e 7c3e 5b16 1e3f 9136 b13e 5ab1 dbbe
000000f0: 343c 50be 4c70 823e 4aba c53d c17e 5d3f
00000100: ff84 7e3d eaf9 85bf 3d2d 003e 2740 793e
00000110: 7b34 413e c028 573e 08bd ac3e 5f42 9c3e
00000120: a30b 6a3e 7f77 9d3e c039 0bbe bc26 743d
00000130: 8b52 1c3f 6574 693e 9a1c 48be 1918 00bd
00000140: 6a00 12be 6c31 8f3e 4296 8d3e 4999 7cbd
00000150: 9c3e 2c3d aa71 59bf 5aed 953e 2c2a cd3e
00000160: 24b5 2c3e af2f 98bc 8430 bfbf 27a8 663e
00000170: 8c46 1b3f acd3 993e 5b2e 04bd 8fc9 a83e
00000180: 48d7 683e c2ad 6bbd 5e31 a13b a266 f33e
00000190: be6b f63c 5768 fc3e 97f6 113d 93c2 03be
000001a0: 6139 a0be e167 71bf e43a 823e b470 e73e
000001b0: f791 8b3d 46a1 813e 1bb4 263d 5aea 933e
000001c0: 019e 113e 8902 703f 3bce 98be e7ea 163e
000001d0: 49e5 443f 70bf 5abc 8555 98be 6f18 e73e
000001e0: 31a7 083f 26d4 b3bd b3fb b1bd 1d68 1ebf
000001f0: e690 1cbe 7595 123f 426a e43d 5659 8bbe
00000200: 028f 323e 42ed b43e dcea bdbe 2a1f 63bf
00000210: 127e 25be 7b7c 373f 2fc1 f13e 8787 babe
00000220: 10e8 a8be a65e e73d fd8a 83bd d066 d63e
00000230: 2d52 8ebd 8901 863d d233 99bd f5d0 e2bf
00000240: 19d8 653d cde0 783c 4985 993c f32a 8fbe
00000250: 944c 843d 8aa2 f3bd 14ac 8dbf 166d 2dbf
00000260: d3c4 243e 890f 6fbf c69e 27bd 0495 013e
00000270: 7898 89bf 013f 4e3b 2b10 3b3e 18e7 f1be
00000280: 2f8d db3e f671 993e 9784 e73e 8c06 eb3e
00000290: 2121 e43d 4015 903e de63 0a3f c81e 253f
000002a0: a3b2 8e3e 312d 0b3f 64f6 1abe c1a1 0cbe
000002b0: f52f 043f 8011 4abe 5ce1 473e 6d54 5c3e
000002c0: 90bf d23e 1cff c63d caaf 863d 371c 3c3f
000002d0: 4b1a d13d 3c9e eabd 3a1e 633e 78b1 84bf
000002e0: 58b7 2a3e 9e25 10bf 3032 94be 53c0 8e3e
000002f0: efa5 8fbd 5f83 d43d 55f3 a6bf 5623 babd
00000300: a297 0ebe d020 28be 6604 a4bc 4934 b0bd
00000310: be51 77bf df3c 3e3d 96e7 143e e9a3 26be
00000320: 9dd3 1cbe 8f7f 9e3e 1e0a 953d 0b58 8fbe
00000330: a33b d73d 0e22 fbbc 5605 96bd 7e1c b0bd
00000340: ede2 82bc 980d 083d 298f fabe 0313 c4bd
00000350: 3c16 8e3d ed42 cbbe c1da b43c d720 b53e
00000360: bbf6 70bf 9a2c f03e 4e9c c13e 017f 23be
00000370: 855c 32bf 89d0 84be 1f74 843e 601f 16bf
00000380: efe3 d23e 7a66 b83e 3ade f7be a312 8dbc
00000390: 2780 cdbe 122b 26bf 9d24 39bf 1f21 75be
000003a0: 8f5d 96be 3a13 66bf 147e 42be c16e 4b3e
000003b0: 1dcf 96be 2050 e53e 9a86 fb3e 42ba cdbe
000003c0: c184 28bf 6f7c 8a3d 2c7b 7e3d a2c6 3cbe
000003d0: 7be0 ac3e 9c15 cabe c9f2 0fbf 051a 3ebe
000003e0: f384 3dbf 552f f7be 083a 8dbe c489 56be
000003f0: e15f 39be c13e 2abf a705 b7bd 6ff6 04be
-0.4427928 0.10367995 0.17629239 -1.0155491 0.07790932 -0.06652937 0.2442189 -0.47250086
0.15256742 -0.25329405 0.06623546 -1.0742749 0.03384073 -0.4339209 0.23406142 -0.2328645
-1.1185269 0.22854824 -0.08434522 -0.58463466 0.067319535 0.048557166 0.102937184 0.40773836
0.25622487 -0.30683726 -0.06900684 0.55993617 0.18060134 0.34989342 0.25254315 0.28124088
-0.03655049 1.4022379 -0.16841593 0.36137074 0.43638074 0.08635111 0.09017615 0.5581009
-0.30113956 0.061957266 0.1020795 -0.0139024025 0.4131514 -0.6192628 0.03543946 -0.05484768
0.08928575 -0.20616989 0.24087355 -0.45156115 0.26822445 -1.0612355 0.43503964 0.11772861
0.24633214 0.6175286 0.34611943 -0.42908746 -0.20335466 0.254763 0.096546724 0.86521536
0.062138554 -1.0466893 0.12517257 0.24340878 0.18867676 0.21011639 0.3373797 0.30519387
0.22856002 0.3075523 -0.13596249 0.059607252 0.6106345 0.22798307 -0.1954216 -0.03127298
-0.1425797 0.27967393 0.276537 -0.06166962 0.042051896 -0.8493906 0.29282647 0.40071237
0.16865975 -0.018577425 -1.4936681 0.22525083 0.6065452 0.30044305 -0.03227077 0.32966277
0.22738373 -0.057538755 0.004919215 0.4753924 0.030080672 0.49298355 0.035635557 -0.12867193
-0.31293777 -0.9429913 0.25435555 0.45203173 0.0681495 0.25318354 0.040699106 0.28889734
0.1422043 0.9375387 -0.2984484 0.14738046 0.7691236 -0.013351306 -0.29752746 0.4513583
0.53380114 -0.087806985 -0.08690586 -0.61877614 -0.1528965 0.57259303 0.111530796 -0.27216595
0.17437366 0.35337263 -0.37093246 -0.8871943 -0.16161373 0.7167432 0.472177 -0.36431524
-0.3298955 0.1129735 -0.06422994 0.41875315 -0.069492675 0.065432616 -0.07480587 -1.7720019
0.05611429 0.015190315 0.018740313 -0.27962455 0.064599186 -0.11896236 -1.1068139 -0.67744577
0.16090707 -0.9338308 -0.040922903 0.12654501 -1.0749655 0.0031470659 0.18267886 -0.47246623
0.42881152 0.29969758 0.45218346 0.45903432 0.11139131 0.28141212 0.54058635 0.64500093
0.27870664 0.5436583 -0.15133053 -0.13733579 0.51635677 -0.19733238 0.19519562 0.21516581
0.41161776 0.09716627 0.06576498 0.7348055 0.10210093 -0.11455962 0.221795 -1.0366659
0.16671503 -0.563074 -0.2894454 0.27881107 -0.07014071 0.103766195 -1.3043009 -0.09088771
-0.13925031 -0.16418767 -0.020021629 -0.086037226 -0.96609104 0.04644477 0.14541468 -0.16273464
-0.15315099 0.30956694 0.0727732 -0.2799686 0.10509422 -0.030655887 -0.073252365 -0.085991845
-0.015977347 0.03321609 -0.48937348 -0.09573939 0.069378346 -0.39699498 0.022076966 0.35376617
-0.9412648 0.46909028 0.37814564 -0.15966417 -0.69672424 -0.2594035 0.25869843 -0.58641624
0.41189525 0.36015683 -0.48411733 -0.0172208 -0.40136835 -0.6490947 -0.7232149 -0.23938416
-0.29368255 -0.8987309 -0.18993407 0.19866468 -0.2945489 0.44787693 0.4912613 -0.40181166
-0.65827566 0.06762015 0.062129185 -0.18435147 0.33765015 -0.39469612 -0.56229836 -0.18564613
-0.7403099 -0.482783 -0.27583337 -0.20950991 -0.18102981 -0.66502005 -0.08936625 -0.12984632

bias f4 [20]
00000000: c56c 063f 4c92 b5be 5cfe 363f d8d8 04bf
00000010: 803e 5dbe 91dc efbe 6996 d53d 35d1 dbbd
00000020: ca30 a1bd 3539 f83d 68f4 bc3c 6ae8 b03e
00000030: f697 153e f133 6abd 1801 b5be 7109 273e
00000040: ae58 253f bd8c 103f 674d 333e e30a 2d3e
0.5250972 -0.35463178 0.7148187 -0.5189338 -0.21605873 -0.46847966 0.10429079 -0.107332624
-0.07870634 0.121202864 0.02306576 0.34552318 0.1460875 -0.05717844 -0.35352397 0.16312195
0.6458844 0.5646475 0.17509995 0.16898684

weight f4 [20, 20]
00000000: 7c04 f93e 35aa 9abd 1b41 843d 7e8a 81be
00000010: 701b 9dbe 5231 8abf 6c71 383f a3e0 5c3a
00000020: 3252 37bf fcd8 623e 8eff adbe 9477 843d
00000030: 6d6c 2dbe 127f 8abe 239d dcbe 689b 513f
00000040: e24d 003e e815 133e fdd9 b43e 57ee f73e
00000050: c980 c3be fb96 3b3f 7c13 70be 3218 893f
00000060: 6624 1bbd fe7c 4fbe 816a 53bd 0484 c13e
00000070: ba67 dc3e fc98 e6be a8f5 f7be a699 06bd
00000080: aabd 17bf b244 423f c0cf 453e 6672 16bf
00000090: 5280 aebe 7d70 e7bd 368b 87be bb80 8ebe
000000a0: 4292 743e 7c0d fc3e d097 eb3e e558 003f
000000b0: ccfd 063f 2481 fe3e afc4 0abf 8dc7 ffbe
000000c0: 29bc 363f 80b3 023e f001 173e d21f 55bf
000000d0: e40b 06be dd50 1a3e 975f 043f ae9f 10bf
000000e0: d66e 353f 5e34 9a3e 903c 8e3f f526 2fbe
000000f0: 4228 10be 105b 233f ab95 f2be a6fa d5b9
00000100: bcd0 88bd 8ca2 113f e446 88bf a800 23bf
00000110: 6263 5dbe 32ed 09bf 11b6 09bf 660c e73d
00000120: 56e1 3a3b 1535 c63e 0b96 c33e 747e db3e
00000130: 48fe 573e 7bad 5dbe f40e bd3e e324 793f
00000140: 4f6f 51bf da2d 853e 201b cdbe df9c ecbe
00000150: 2df6 80bf 8296 c2bd 7900 833e 2f19 063f
00000160: 5f6a 93be 873c 973e bf62 dfbe bd49 353e
00000170: f8f0 8bbe 824a d2be 7c44 b23c dbc1 ddbe
00000180: 899e 28bf c8ab 4f3f 5a15 c93e 114e a93e
00000190: 989d 02bd 6ba2 933e a1be e9be 3e2e e5be
000001a0: ee14 4a3d 8964 853c 67dd f5be 4978 64be
000001b0: 7cb5 af3e 0b4e d0be 19a9 2fbf 5520 f1bc
000001c0: a486 91bf 9782 813e 6603 e63e 3d66 3ebf
000001d0: f74c 013d 332b 2bbf 37ce b8bd 22f7 003f
000001e0: 1eb0 fb3e 84a0 54be a877 393e 8d16 4dbe
000001f0: 9756 b13e 7bfe 35be 2521 debe ff7d 023f
00000200: fbca e7bb fd43 543f a045 4e3f cbe4 3ebe
00000210: 1a83 ffbd 710c 00be ed9b 72bc feb7 1a3f
00000220: e524 01bf 906c 8abe 2310 77be 3889 3e3d
00000230: 33f6 27bf 2f0a 0abf 78f1 5a3e 9849 1fbf
00000240: 87e0 24bf 717c a2bf 2c3f e6b9 d682 97be
00000250: 50c8 cabd a35a 7f3e 1889 4cbf 9fb0 b1be
00000260: 4c8f 59bf 66ce 9ebe 6846 44be c69a 7a3d
00000270: c86d 2b3f d244 233e aff3 1d3e 65df 3ebe
00000280: 361e 9c3e 782f d0bd 1c19 913d 450a babe
00000290: 0ac7 943e a81b e1bd 3b5a 1fbe e84c f33e
000002a0: f10f b03d 04c0 2b3f 8d82 6d3f c782 e3bd
000002b0: d843 cebd 8e76 2fbe b78f 8d3d 8447 cb3e
000002c0: 0faa 49bf fded 443e dfe0 08be ece4 21bf
000002d0: e36a 27bc 2766 04bd a195 83bf faef 9dbe
000002e0: 754d 293e 59e0 91bd af08 323e 59c2 ea3e
000002f0: dece 223f 7a32 04bf 1551 bcbe 290b 6abe
00000300: 91af a53d f859 7ebd 058d c33e 778d d6bd
00000310: 61e9 9ebe 8f04 3cbe 7cc0 9a3d 56a9 b43e
00000320: 53bd 913d 4915 85bd 2f81 fd3d b617 2cbe
00000330: da4a 64bf 4894 58bf 4da2 fb3c bb1c 3ebe
00000340: 9006 b6bc abf5 c5bd 9c35 87be cfdb 363e
00000350: eab6 53bf bff0 47bd 5a02 c03e 532c 7b3e
00000360: 6bb7 5dbf 2bcc fbbe f57e 073e 9187 65be
00000370: e363 8dbf 376c 87bd 6b2a d4bd ac99 883c
00000380: 4fa0 dfbd e50a 4dbd d382 783e fd61 92bf
00000390: 096f 3b3e 40d3 9bbe d854 0ebf 9478 80be
000003a0: 6183 3d3f 8839 4c3e 7ab0 ecbd fa85 a2be
000003b0: 5bc0 313e 8be0 173c f80a 93be f4b0 5e3a
000003c0: 03ef 013d 054b 0c3d db97 4f3e 03b2 c53e
000003d0: bbdd 4a3e f65b 4f3f f6ae c9be d806 d23d
000003e0: b409 0f3e 08e3 1dbf 44c2 07bf 52d7 debd
000003f0: bb50 29bd 3323 613b a86b df3e 1fca 6cbe
0.48636234 -0.07551996 0.064577304 -0.25300974 -0.30684996 -1.0796301 0.7204807 0.00084258075
-0.71609795 0.22153085 -0.33984035 0.0646812 -0.16935892 -0.27050072 -0.43088636 0.81877756
0.1252971 0.14363825 0.35322562 0.48424026 -0.38184193 0.7327725 -0.23444933 1.0710509
-0.03787651 -0.20262524 -0.051615242 0.37796032 0.43047887 -0.45038593 -0.48429608 -0.032861374
-0.5927378 0.7588607 0.19317532 -0.5876831 -0.34082276 -0.11300752 -0.26473397 -0.2783259
0.23883918 0.49229038 0.4601426 0.5013564 0.52731013 0.497079 -0.54206365 -0.49956933
0.7138086 0.12763786 0.14746833 -0.8325168 -0.13090473 0.1506991 0.5170836 -0.5649365
0.7087225 0.30118078 1.1112232 -0.17104705 -0.14077857 0.63810825 -0.47379813 -0.00040813274
-0.06680438 0.5688865 -1.0646634 -0.63672876 -0.21619943 -0.53877556 -0.53793436 0.11281662
0.0028515658 0.38712373 0.3820041 0.42869914 0.21093094 -0.21648209 0.3692547 0.9732191
-0.8181047 0.26011544 -0.40059757 -0.46213433 -1.0075127 -0.09501363 0.25586298 0.5238218
-0.28792092 0.29538366 -0.43630025 0.1770391 -0.27332282 -0.4107247 0.021761172 -0.43311962
-0.65866905 0.8112149 0.39274102 0.33067372 -0.031888574 0.28834853 -0.4565325 -0.44761842
0.049336366 0.01628329 -0.4802048 -0.2231151 0.3431815 -0.40684542 -0.686174 -0.029434362
-1.1369214 0.25294945 0.44924468 -0.74374753 0.03156754 -0.6686279 -0.09023707 0.50377095
0.49157804 -0.20764357 0.18112051 -0.20028134 0.34636375 -0.17772858 -0.43384662 0.50973505
-0.0070737577 0.8291624 0.8057499 -0.18641965 -0.124761775 -0.12504746 -0.014807683 0.60437
-0.5044692 -0.27035952 -0.2412725 0.04651758 -0.65610045 -0.5392179 0.21381176 -0.6222167
-0.644051 -1.2694227 -0.00043916085 -0.29592007 -0.09901488 0.24936919 -0.7989669 -0.34705064
-0.8498428 -0.31016845 -0.19167483 0.06118276 0.6696439 0.15944222 0.15424989 -0.18639906
0.304918 -0.10165304 0.07084867 -0.3633596 0.29058105 -0.10991603 -0.15561764 0.47519612
0.085967906 0.6708987 0.9277733 -0.11108928 -0.10071534 -0.17135069 0.06912177 0.39703
-0.78775114 0.1923141 -0.13367032 -0.6323993 -0.010218355 -0.032323983 -1.0280038 -0.3084715
0.16533454 -0.07122869 0.17386125 0.458514 0.63596904 -0.5163952 -0.3678061 -0.2285582
0.08090127 -0.06209752 0.38193527 -0.10476201 -0.3103743 -0.18361114 0.07556245 0.35285443
0.07116189 -0.064982004 0.123781554 -0.1680592 -0.89176714 -0.8460126 0.03071704 -0.18565647
-0.022219926 -0.09665998 -0.26408088 0.17857288 -0.8270098 -0.048813578 0.37501794 0.24528627
-0.86608 -0.49179205 0.13232024 -0.22414996 -1.1046108 -0.06612437 -0.10359653 0.016674839
-0.10919248 -0.050059218 0.24268655 -1.1436154 0.18304075 -0.30434608 -0.5559821 -0.25091994
0.74028593 0.19943821 -0.11557098 -0.3174284 0.17358534 0.009269844 -0.28719306 0.0008494996
0.03172208 0.03425123 0.20272772 0.38612375 0.19811146 0.80999696 -0.39391297 0.102552116
0.13968545 -0.6167455 -0.530308 -0.10880913 -0.041336756 0.0034353256 0.43636823 -0.23123978

bias f4 [20]
00000000: 85a9 953e cdb3 0fbf 37f2 813e e12d fbbd
00000010: 9641 03bf e814 26bf ea64 943e 889a 0a3f
00000020: 3520 6abe ccf8 01bf acee f73d b8eb 403e
00000030: 28aa 873b e1ce a0bd 5399 3dbe b068 24be
00000040: 950f 4d3e 7523 02bf 9b13 243f 473e 0a3f
0.29230896 -0.5613373 0.25380108 -0.1226461 -0.5127195 -0.6487565 0.2898324 0.54142046
-0.22863849 -0.5077026 0.1210607 0.1883992 0.0041401573 -0.07851959 -0.1851552 -0.1605556
0.20025475 -0.50835353 0.64092416 0.5400128

weight f4 [1, 20]
00000000: 6664 f33f a2e3 5abf 9407 0e3f f656 adbf
00000010: 1994 98bf d660 79bf f56c 7ebf e897 77bf
00000020: ab0b 78bf dcde 81bf e5da d5bf d061 ca3f
00000030: 6787 81bf 6699 0b40 25a0 1e40 6ca2 5bbf
00000040: f3bf 84bf 1be6 26bf a33f 483f 4fb1 4dbf
1.9015014 -0.8550359 0.55480313 -1.3542163 -1.1920196 -0.97413385 -0.99385005 -0.96716166
-0.96892804 -1.0146136 -1.6707426 1.58111 -1.0119447 2.1812377 2.4785244 -0.8579471
-1.0371078 -0.65194863 0.782221 -0.80348676
